Unity/Assets/StreamingAssets/model.tflite (tflite, 18164 bytes, 6 tensors)

sequential_2/dense_8/BiasAdd/ReadVariableOp f4 [10]
00000000: b018 2cbd 5874 9dbb bdca 29bd 12e6 7a3c
00000010: 63b6 483d 4537 6cbc f848 263c 6e44 45bc
00000020: 552e 853c 61ee 753c
-0.04201573 -0.004805129 -0.041453112 0.015313642 0.049002063 -0.014417474 0.010149233 -0.012040241
0.016257444 0.015010447

sequential_2/dense_7/BiasAdd/ReadVariableOp f4 [32]
00000000: cc12 e23a 3254 85bc b6b6 cf3b 3527 bc3b
00000010: 0ddc 243c 964a 71bb c4b2 fdbb 06c9 98bc
00000020: 6faa 0c3c d8df 44bb a55b 173d aac8 4cbc
00000030: 815c 7a3b c386 ed3a ae00 b53b 7d71 1f3d
00000040: 77e1 d7bb 7031 643b 76e2 ba38 06e5 1e3a
00000050: 9acc 7cbb b787 a5bc 3e37 9abc a331 103c
00000060: eab6 cc39 799e 29bb 0627 a03c 442a 2ebc
00000070: 588b 8d3c 5a75 e93c 3702 8e3c bbe2 5e3c
0.0017248034 -0.016275499 0.0063389195 0.0057419785 0.01006223 -0.0036818138 -0.007742258 -0.018650543
0.008585556 -0.0030040648 0.036952633 -0.012499014 0.003820211 0.0018121827 0.0055237627 0.03892659
-0.006588157 0.0034819506 8.911353e-05 0.0006061349 -0.00385741 -0.020206315 -0.01882517 0.008800897
0.00039046194 -0.002588181 0.019549858 -0.010630194 0.017278358 0.02849834 0.01733504 0.013603861

sequential_2/dense_6/BiasAdd/ReadVariableOp f4 [64]
00000000: 5119 22bc 0000 0000 a4fc 4a3c 0000 0000
00000010: e491 6bbb 3465 633b 91ee 8fbc 1b45 b6bb
00000020: 1e81 4bbc a9c7 dd39 5c48 edbb 4aec 07bc
00000030: 7205 993b 2dc3 923c 405c 613a 3307 aebc
00000040: f820 d8bb 5fc9 22bd 7066 bfba 47aa 4abc
00000050: c9b9 903c 0000 0000 bb21 d7bb a390 b93b
00000060: 0000 0000 cca5 29b9 647b 97bc 0382 16bb
00000070: 88d5 87bc f35e c73c 2af4 0abc 913c bd3b
00000080: 69e7 3bbc 58c5 2ebb 0c78 86bc e62a 703c
00000090: f677 bfba 6687 81bc f288 4dbc 9e8f c4bc
000000a0: a50c 9d3a 6d9e d5bc c5f6 143d 9845 20bc
000000b0: 2252 d8ba 0f44 03bc 58cf 9b3a 587c 48ba
000000c0: 956a 9f3b fad3 b1bb 3c21 a33c 1609 d43a
000000d0: fed3 c63b 8b3e 8c3c 76a2 643c 1122 6bbc
000000e0: c5cf 423c 2365 523d d170 d33b c61a 6bbc
000000f0: 6775 83bb 4776 38bc c5bd 1c3c 535e fbbc
-0.009893731 0.0 0.012389336 0.0 -0.0035945112 0.0034697773 -0.017569812 -0.005562437
-0.012420921 0.00042301163 -0.007241292 -0.008296082 0.0046698386 0.017915333 0.0008596815 -0.021243667
-0.006595727 -0.039742824 -0.0014602672 -0.012369699 0.017666714 0.0 -0.0065653003 0.005662994
0.0 -0.0001617886 -0.018491454 -0.0022965677 -0.016581312 0.024337268 -0.008481065 0.0057750423
-0.011468747 -0.002666792 -0.016414665 0.014658665 -0.0014607895 -0.015811633 -0.012544857 -0.023994263
0.0011981918 -0.02607652 0.03636815 -0.009782217 -0.001650397 -0.008011832 0.0011887355 -0.0007647923
0.0048650005 -0.005426881 0.019913308 0.0016177024 0.006067752 0.017119667 0.013954749 -0.014351384
0.011890356 0.051365983 0.0064526577 -0.014349645 -0.004011798 -0.011258668 0.009566729 -0.030684626

sequential_2/dense_6/MatMul f4 [64, 24]
00000000: 9eaf f3bc 1378 37be eeed d0bd ee90 85bd
00000010: ab13 223e 9010 c63d 58c5 603d 4680 043e
00000020: d2d9 6ebd ceb0 643e 802e 74be 331d 64bd
00000030: d66b fb3d ebd7 883e 635c 283e 911f 1f3e
00000040: bb73 07bd a5c4 3cbe f759 4d3e eb08 db3c
00000050: 886b f2bd 0e83 3fbe 5294 7cbe 2449 9f3d
00000060: 30fe 4ebc 30f1 08be 18cc 0b3d cc83 b13d
00000070: 92eb abbd e81d 273d 785d 1e3e 880c 843d
00000080: fc24 ca3d 9037 61be d6fb f8bd 3fe4 84be
00000090: 20ba e9bd d2d9 223e 6463 da3d ba4b eebd
000000a0: e87e 0f3d 7472 e0bd fe09 1abe c4de eebd
000000b0: a665 9fbd 9c4f 25bd 1cd1 28be a772 4bbe
000000c0: 98aa 88be 29a6 7c3e 7d45 16be cc37 2ebe
000000d0: 97e6 7c3d f868 bd3c 23d6 0bbe 90c8 5f3d
000000e0: ec9a 753d ab96 85bc a3ca dabd c62c ce3c
000000f0: 90d4 e0bd a5b9 823e 5732 123e dd87 073e
00000100: 48bc 42be 26f3 acbd 552e 94bc 696c 84bc
00000110: 8131 12be f652 943d c944 f23c 94f5 46be
00000120: 2230 643e e640 6bbe 48f7 6ebe 9b57 39be
00000130: a811 be3d 9af5 7abe 38eb f1bc d169 08be
00000140: 00d2 b1ba 6d51 0bbe 1bd8 50be e6c0 35be
00000150: f4c6 4e3e 000d 48be 0c1c 1b3e b0e9 0b3d
00000160: e078 2f3c 3ca3 9b3d 4810 57bd 481e 38be
00000170: f858 e6bc 88a6 26be 2ed4 0f3e fc3f 7ebd
00000180: ed3d 613d dad9 86be cfb9 313d b57b 2c3e
00000190: 2a57 80bd 7f45 6b3e 6c4f bf3d 69be 963d
000001a0: 7b6c 53be 718d b0bd 043d a03e a4ae 853e
000001b0: 2098 853e 90bb 13be 8c13 043e 62ac 2b3e
000001c0: 53bf 473c 2d62 0f3e 5279 923b 4e0b 85bd
000001d0: c1d6 f9bd c532 9a3d 23a4 26be 4011 ecbc
000001e0: 62a3 90bd d26a 6abe 5e12 1f3c fb29 4dbe
000001f0: 3266 3e3e 6521 13bc 31bf 943c b478 813e
00000200: 8abb b73d cb38 323e ec48 9fbd f088 6f3c
00000210: 4d84 43bc 1d7d 8b3e f2df 1c3e eadd 243e
00000220: dcda 2b3e 20b7 733d b585 bebd fbdd 91bd
00000230: 47a2 0c3d 143f 25be 235b 1d3d d177 5dbe
00000240: a108 1cbd 9018 6f3d d211 443c 6517 613e
00000250: c4de 03be 4e18 0f3e fe7b abbc 04b0 713e
00000260: f329 db3a c36f 8dbe 492e 4cbe b334 a8bc
00000270: 42d1 79be 37ef f5bb 7bf6 51be a18d e23d
00000280: 1158 e2bd 7f07 6dbd 3212 6d3e cf43 d83d
00000290: 956e 16bd 2585 14be 53ab 12be 6e04 5abd
000002a0: 745c ba3c 6768 553b 6b99 6d3e ea1c c73d
000002b0: c219 38be a418 ed3d 1770 8f3d c3cc 8b3d
000002c0: 9115 133e 5f5e a63d 87e0 62be 7d62 62be
000002d0: e41e ae3d ce15 f33d b58a 373e 2cea adbd
000002e0: 3f6b 0c3e f19c 593e 6ef3 0b3e 6eae 593e
000002f0: 863e fdbd 26bd 4bbd f4a3 0fbe cb2e 50be
00000300: 503b 023d dfd4 573e ab98 703e 39a6 0b3e
00000310: 0d53 283e 186c 1abd 05eb 83be e26e 4abd
00000320: a629 0abd dc70 493c 92ae 2dbe be30 83be
00000330: 9291 31be 427a 65be ad51 5abe 8cfc 2bbe
00000340: 55ec 28be 5329 023d 6576 b83d 813c 193e
00000350: 0c66 51bc 839f c33d 7528 0c3e 5949 0bbe
00000360: 91b8 6dbe 8634 da3d 333f 79bd 0ea7 33be
00000370: 43f9 123e 4c8f 33be e58a 54be 6205 723d
00000380: 5ea7 753e eb29 6fbc d066 473d 703c 643e
00000390: 4b21 65be 898b 65be 15d2 123e de6d 8d3d
000003a0: 0383 e73d 83c7 163e a724 773d 2684 26be
000003b0: 9abb 5e3a 111e 2c3e d377 873e a503 f5bd
000003c0: 3f04 283e bf97 193e e6bc 863e 7746 52bd
000003d0: 477f 4a3e 4093 7c3e d8ee 533e 0ef7 83be
000003e0: 0bf8 a9bd 0e79 ee3d 48d3 8b3d d612 c33d
000003f0: 4a83 4dbc 55d2 0f3d bf25 08be c5fd dbbd
-0.029746827 -0.17916898 -0.102016315 -0.06521784 0.15827815 0.09671128 0.0548757 0.12939557
-0.0583132 0.2233307 -0.23845863 -0.05569191 0.122764274 0.26727232 0.16441493 0.15539385
-0.033069354 -0.18434389 0.2005385 0.02673765 -0.11836916 -0.18702337 -0.24665955 0.07777622
-0.012633845 -0.13373256 0.034130186 0.086677164 -0.08394541 0.040800005 0.15465343 0.06447703
0.098703355 -0.21993852 -0.12157409 -0.25955388 -0.11412454 0.15903404 0.106634885 -0.116355374
0.035033137 -0.1095933 -0.15042874 -0.11663583 -0.0778306 -0.040359125 -0.16486019 -0.19867955
-0.26692653 0.2467276 -0.14674945 -0.17013472 0.061743345 0.023121342 -0.13655905 0.05463463
0.0599622 -0.016307196 -0.10683181 0.025167834 -0.10978043 0.2553226 0.14277016 0.13235421
-0.19017136 -0.084448144 -0.0180885 -0.016164975 -0.14276697 0.07242386 0.029573815 -0.19429618
0.22283986 -0.22973976 -0.23336518 -0.18099825 0.092807114 -0.24507752 -0.029531106 -0.13321616
-0.0013566613 -0.1360528 -0.20394938 -0.17749366 0.20193082 -0.19536209 0.15147418 0.03415841
0.010709971 0.07599494 -0.05250576 -0.17980301 -0.028118595 -0.16274464 0.14045784 -0.06207274
0.054990698 -0.26338083 0.04339009 0.16844065 -0.06266625 0.2297573 0.093413204 0.073605366
-0.20646851 -0.08620728 0.3129655 0.26109803 0.26092625 -0.14427018 0.12898082 0.16764978
0.012191611 0.14002295 0.004470029 -0.06496297 -0.12199164 0.07529215 -0.1627355 -0.02881682
-0.07062413 -0.22892311 0.009708969 -0.20035546 0.18593672 -0.00898013 0.018157573 0.25287402
0.08971317 0.17404477 -0.077775806 0.014620051 -0.011933398 0.2724389 0.15319803 0.16100278
0.16782707 0.059500813 -0.09302846 -0.071224175 0.034334447 -0.16137344 0.038416993 -0.21627738
-0.038094167 0.058373034 0.011967139 0.2198158 -0.12877947 0.13974115 -0.020933148 0.23602301
0.0016720876 -0.2762433 -0.19939531 -0.020532941 -0.24396232 -0.0075053233 -0.20504181 0.1106217
-0.110519536 -0.057868477 0.23151472 0.105598085 -0.036726553 -0.14503916 -0.14323168 -0.05322688
0.022749163 0.003256345 0.23203056 0.09722312 -0.17978576 0.115769655 0.07003801 0.068261646
0.14363696 0.081234686 -0.22155963 -0.22107883 0.08501986 0.11869393 0.17924006 -0.0849193
0.13712786 0.21251275 0.1366708 0.21257946 -0.12365441 -0.049740933 -0.14027387 -0.2033035
0.031794846 0.21077298 0.23495738 0.13637628 0.16437931 -0.037700742 -0.25765243 -0.049422152
-0.033731125 0.012294974 -0.16961125 -0.25623125 -0.17340687 -0.22409919 -0.2132022 -0.16795558
-0.16496404 0.03177769 0.09006957 0.14964487 -0.0127806775 0.09551909 0.13687308 -0.13602199
-0.23214938 0.10654549 -0.060851287 -0.17544195 0.14352898 -0.17535132 -0.20756109 0.059087165
0.23989627 -0.014597396 0.048682034 0.2228868 -0.22375982 -0.2241651 0.14337952 0.06905721
0.113042854 0.14724545 0.06033769 -0.16261348 0.0008496583 0.16808344 0.26458606 -0.11963586
0.1640787 0.14999293 0.26315993 -0.05133673 0.19775115 0.24665546 0.2069658 -0.25774425
-0.082992636 0.11644183 0.06827408 0.09525077 -0.012543509 0.035112698 -0.13295649 -0.10741762

sequential_2/dense_7/MatMul f4 [32, 64]
00000000: c821 af3c 24fc 41be c70d 00be 1872 6bbe
00000010: accb 873e cae2 37be d37b 24bc bc88 543e
00000020: 71bd ce3d 3b2a 4ebd 677d 21be 6497 ddbd
00000030: 35d1 073e 86b2 cabc f251 52be 01f3 5fbe
00000040: a59e 44be 9823 33bc 964a 223d a8d7 48be
00000050: a23e 033e a08e 943d 824e 06be 3e80 c13d
00000060: 4c52 3dbe 50e9 c43d dfcf 303e cc50 303e
00000070: 5c51 0ebe 5e23 87bd 8b0a 1a3d 33b6 59bd
00000080: 15b3 a8bd ea7a 98bc a336 063e ca5c 0cbe
00000090: 2b78 20be 8f3b fbbd ff7f 90bd c934 76bc
000000a0: 00e6 803e cc88 2c3e c8e5 51be 65e3 3a3e
000000b0: 0b31 133e 085e 6b3e 22f4 c83c 78f5 a53c
000000c0: 4c0f eabc 0aa8 febd 4f2b 633e 8b22 493e
000000d0: 1857 5cbd f19d 1d3e c055 c7bd c6e8 043d
000000e0: b027 013c 5fcc 8a3e dc05 8f3e ed02 8cbd
000000f0: e6a1 0abc eeef 29be fda5 44be b540 673d
00000100: 4234 72be c06f 7a3c 5a8d 383e 3801 80bd
00000110: d13e 56be 7f76 cbbd 2d7a afbd b0dd debc
00000120: ad74 30be 2803 503d 25d2 d73d c1c8 3f3e
00000130: 0919 18be f9a9 993e 0676 283e ab6a 423d
00000140: 6fff be3d 7ac8 2c3e c63f 4e3e e945 5bbd
00000150: 0780 0bbe b4c0 4cbe 3800 39bd 840b 753e
00000160: fce1 58be aea9 fbbd aead 2e3e b550 19be
00000170: ddc6 903d 6107 9e3d e379 993d 209d 3ebe
00000180: 1dd2 32bd dcb3 7b3e a1b9 5a3e c76a 9abd
00000190: 1a81 3738 c04b 46be 2339 033d 23b1 063e
000001a0: 51b4 093e f7d3 553e f04a bf3c 264c 503e
000001b0: 5a90 b5bd 98d9 06be 2eb4 983c 3ae3 1fbe
000001c0: 2bda 13bd 169c 913d 3405 253e 649b cc3d
000001d0: f75b 2c3d 7e7c cd3c f858 04be d99f 8abe
000001e0: abd2 1b3d fc68 d4bd c74a fc3d 0270 04be
000001f0: 65f7 c1bd 013d 2f3e 1114 193d 2db4 193e
00000200: 2fc2 193e 2067 3b3d 4804 ba3c e8d2 16be
00000210: a3ed 903e 0b0d 74be 7978 4b3e 6f5e 4bbe
00000220: 263f 67be 63bc a6bd 1f31 28be e26c 7e3e
00000230: b9fa 3f3e 0c74 983e cb21 14be ac1a c8bd
00000240: 4fab 133e c852 0e3e d4d8 3ebe 15bc 343e
00000250: 02a8 093d 444d 593e e0e9 8dbc 9c7f 52bd
00000260: f0ba b9bd 673a d03c f80a 403e 63d4 c93d
00000270: cd70 c43d a421 793e a3bb 40be 7ada 323c
00000280: 89b2 193e 5335 bbbd 67ae 2bbe e3cd bbbd
00000290: 1d4c 8b3e cf0d dfbd 3c49 65bd 43d2 233e
000002a0: 0d49 f7bc 67f1 fc3d c7f9 bd3d 8674 94bd
000002b0: c41d 46be bc59 8abd 78c5 ef3d 54bc 053e
000002c0: 18c8 fb3d d3ac 7cbe 6015 1f3c a8dc 34be
000002d0: 572f 31be a0e0 0b3e 214b 61bd dab0 2dbe
000002e0: 8142 163e 5fc5 523e c3de 533e 7bbe 4a3e
000002f0: d21a 393e 701d 3e3c b4a4 013d bda2 3f3e
00000300: 30c0 46bd e09c 40bd de01 f73d a4d8 603e
00000310: 2ec9 513e 4169 563e 4f2f 423e d62c e73d
00000320: 0b68 87be beca 573e 0632 e5bd 9f39 9bbd
00000330: da59 46be 6494 ebbd e793 7a3e f2cc 88be
00000340: b6d1 5bbe ae8b 093e 1f8b 1f3e e7fc 0fbe
00000350: 3f4e b73c ac5d 313e 0afc 9dbd 6d49 7f3e
00000360: d088 8dbd 5a08 52be 39af 283e 6eeb 6b3d
00000370: 3043 023e 4e10 48be 0fea b2bd b34d 8abe
00000380: 31a7 6b3e 031d aabc 8ab0 72be 4de9 013e
00000390: 0e84 63bd b239 76bd 55f0 0e3e 6586 fc3d
000003a0: 8f45 dabd 5d57 0ebe b1e0 66bd 9ccb 193e
000003b0: b4df 2ebe 37c2 573d 1dcd 41be 894c a3bd
000003c0: 0bdc edbd b3ae 4b3e 94d7 3f3e c860 0a3e
000003d0: 45e8 d5bd 28bb 2fbe 6a3b 443d bc42 88bb
000003e0: c8e9 febd 3ba5 c53d e96b 813e fa05 7dbc
000003f0: a3bd 04bc adc4 3a3c 3a83 96bc 9743 053c
0.021378413 -0.1894384 -0.12505256 -0.22992742 0.26522577 -0.17957607 -0.010039288 0.20755285
0.10094727 -0.050333243 -0.15770493 -0.10819891 0.132634 -0.02474333 -0.20539072 -0.21870042
-0.19201143 -0.010933779 0.039621912 -0.19613516 0.12816861 0.07253766 -0.13115886 0.094482884
-0.18488425 0.09614813 0.17266797 0.17218322 -0.13898224 -0.06598543 0.03760771 -0.053152274
-0.08237282 -0.018613297 0.1310678 -0.13707271 -0.1567084 -0.12267219 -0.07055663 -0.015027233
0.25175476 0.16849059 -0.20497811 0.18250807 0.14374177 0.22985089 0.024530474 0.02025865
-0.028571747 -0.12434395 0.2218449 0.19642083 -0.053793997 0.15392281 -0.097331524 0.032448553
0.007882997 0.27109048 0.27934158 -0.068364955 -0.008461451 -0.16595432 -0.19203945 0.056458194
-0.23652747 0.015285432 0.18022671 -0.062502325 -0.209224 -0.09934711 -0.08568225 -0.027205318
-0.17232008 0.05078426 0.10538129 0.18728925 -0.148533 0.3001249 0.16451272 0.047465008
0.09326064 0.1687335 0.20141515 -0.05353347 -0.13623057 -0.19995385 -0.045166224 0.23930174
-0.21179956 -0.12288223 0.17058441 -0.14972194 0.0706918 0.07716251 0.07493951 -0.18614626
-0.04365741 0.2458033 0.21359874 -0.075398974 4.3750835e-05 -0.19364834 0.03203691 0.1315351
0.13447692 0.2088164 0.023351163 0.20341548 -0.088654235 -0.13168943 0.018640604 -0.15614024
-0.036096733 0.07109849 0.16115266 0.09990576 0.042079892 0.025083777 -0.12924564 -0.2707508
0.038042706 -0.10371587 0.1231895 -0.12933353 -0.09471015 0.17113115 0.037372652 0.15010138
0.15015481 0.045752645 0.02270712 -0.14728892 0.28306302 -0.238331 0.19870175 -0.19860242
-0.22582683 -0.08141401 -0.16424988 0.24846223 0.18747987 0.29776037 -0.14466016 -0.09770712
0.14420818 0.13898766 -0.18637401 0.17649873 0.03360749 0.21220881 -0.017323434 -0.05139123
-0.090688586 0.025418473 0.18754184 0.09854963 0.095918275 0.24329239 -0.18821578 0.010916347
0.15009512 -0.0914103 -0.16765748 -0.09170129 0.27206507 -0.10891306 -0.055978045 0.15998177
-0.0301862 0.12350731 0.09276157 -0.072487876 -0.19347292 -0.06755397 0.11707586 0.13060123
0.12294024 -0.24675302 0.009709686 -0.17662299 -0.17303215 0.13659906 -0.05500329 -0.16961995
0.14673807 0.20583104 0.20690446 0.19799225 0.18076637 0.011603698 0.031651214 0.18714423
-0.048523128 -0.047024608 0.12060903 0.21957642 0.204869 0.20938589 0.1896336 0.11287849
-0.26446566 0.21073434 -0.11191182 -0.0757935 -0.19370213 -0.11502913 0.24470483 -0.2671886
-0.21466717 0.1343219 0.15580414 -0.14061318 0.022376178 0.17320889 -0.07714088 0.24930353
-0.069108605 -0.20510998 0.16473092 0.05759757 0.12720942 -0.1953747 -0.087360494 -0.27012405
0.23012997 -0.020765787 -0.23700157 0.12686653 -0.05554586 -0.060113616 0.13958867 0.12330321
-0.106577985 -0.13900514 -0.056366626 0.15019077 -0.17077523 0.052675452 -0.18925901 -0.07973582
-0.116142355 0.19890861 0.1873458 0.13513482 -0.104446925 -0.17161238 0.047908224 -0.004158346
-0.12446934 0.09650656 0.2527764 -0.015443319 -0.008101854 0.01139943 -0.01837312 0.00813379

sequential_2/dense_8/MatMul f4 [10, 32]
00000000: 10d7 213e daa7 5f3e 5ec4 023e 37a4 0abe
00000010: fda1 f23d c652 f83d a425 89be d6af 263e
00000020: 0193 a93e ffaa 90be 87c5 0abe 7c79 30ba
00000030: 2eab a13e fb25 8dbe 3e50 02be 37a1 b6bd
00000040: 2dd7 9e3e 94ec 86be edfb 44be b3a1 d1bb
00000050: 4c2a 893e 49bf af3d e14e 663e 83cb c5bb
00000060: 683a cc3b 8770 9b3e 702e bdbd 2a96 123d
00000070: 91a0 d13e a062 12be 7f2b af3e f234 c13d
00000080: 350d d33e 00cf 82be 2e88 ef3d 24d4 c63e
00000090: 0f65 8e3e 9cd4 453e b6bf 363e fa76 823d
000000a0: 87a3 57be d333 96be a346 6bbd 7935 47be
000000b0: 2777 203e 4dc3 883e dd53 803e 22e5 533e
000000c0: 5c3f 7bbe 82df 173e 4c28 b9bd b5b0 1cbe
000000d0: 4842 a93d 5410 f3bd b1b8 a33d 1520 8f3c
000000e0: 3ccf 97be 3864 b63e 9ada 853d 3fdc 323e
000000f0: e478 9d3e d0ff 6f3d a219 873d 2457 323e
00000100: 2927 b93e 056e 993d e5e4 3fbe da51 3a3e
00000110: ec3f 46be 270e 6e3e f3c6 10bd 187f 603e
00000120: 4eb1 80be 0828 3d3d 091d 54be ad82 d3be
00000130: f29f d2bd b7c9 04be fd4b 923e 095d 8dbe
00000140: 12d4 d0be 7394 dc3d 0ac3 acbe 0741 3c3e
00000150: 5093 7cbe e7ef 3ebe 4040 ab3e c448 e2bd
00000160: e49c a13e 1a15 99be 6fb6 dabe 5df9 803e
00000170: bbf0 e6bd 7394 c03e 9729 f5be 655b b6be
00000180: 77f9 ba3e 9cf6 be3e 2e6b 9abe a663 01be
00000190: dfd2 a4be 4067 23be 9252 923e c31c cb3d
000001a0: 73c2 a1bd eaab 27be 8c9b 01be 0b20 b3bd
000001b0: 5d2f a3be a937 9dbe 8abd 0cbd 8e2d 91be
000001c0: 69d4 863e 5e8f 3e3e 8f91 a83e 9c71 9ebe
000001d0: b398 0bbd aeeb dabd c24d 9cbe ed8f ccbe
000001e0: 8eb9 283e 7a8c 7d3d 95cd 4dbe 2066 c23d
000001f0: 3bb4 563e 231c c23d 4e60 c4bc 9b01 ce3d
00000200: 9213 91be 1def 4abe 6705 f43c eb24 0cbe
00000210: 7179 483e 5c98 ea3d dd9c a3be d760 bfbe
00000220: a49e 583e 89ac b5be 8301 f1be 6829 97be
00000230: 2a9c 813d 16d5 66be cf34 21be 34c4 b5be
00000240: 217a 61be cc4f 7abe 6a4c 903d a2dc d03e
00000250: d3a6 463e 38cf 90be 1966 62be 91b4 78be
00000260: 7025 8f3e 7128 98bc e66a 1cbe 53cb 373e
00000270: d928 26be 09ec 643e 8d98 a83e 8ce9 963e
00000280: 27c1 a7bd 8f65 993d 51d7 c0bd f438 99be
00000290: ecb0 4b3e e37e 98be d7c5 6a3e 71a4 923e
000002a0: ed2d c33e 2910 f0bd 4fb5 ad3e 1ff5 2fbe
000002b0: 582e e03d fac1 733e 22b3 bb3e ad2b c0bd
000002c0: dff1 4a3e 4623 98be 979f dabd 0390 08bd
000002d0: 2465 6abd 5b2b a03e ff07 623e 21b4 a83e
000002e0: e586 30be b2ba 803e 4ce3 0ebd 5c69 e6bd
000002f0: 1940 cdbe 1dc9 a7be 1ab8 2cbe 4c1d 3b3e
00000300: 92fe 9e3d be58 91be f694 163e eeae 55be
00000310: 904d a0bd 2340 903d 922d f83d 65ac 70be
00000320: 269b 03be 0f3a ba3e 994e 283e 6f0f 46bd
00000330: c608 cd3a 0eae 7dbe 3a4e 23be afd6 aebe
00000340: ae56 b23e e4d7 143e 7697 503e 79fe b0be
00000350: 6d9f 96be 4f3e 843e 727e a1bb d0a5 9b3e
00000360: 945c 623d 57c6 23be afc4 19bd f854 443e
00000370: 9b0b 27be 966f 48bd 7bf3 c5bc fd22 53be
00000380: 0e3d c3be 25b7 a3be 0422 b03d 887b e0bd
00000390: 8577 1ebe 4363 f8bd 1017 0e3d dd59 b33e
000003a0: 5071 ee3d 9bdf e73d 1540 913c 07e8 57be
000003b0: 1334 4dbe 0542 593e a6c0 21bd 1209 b83d
000003c0: 50f0 e83d 9f24 873e 7fa9 723e b9c3 923e
000003d0: 5642 973e 23c7 073e 048c c6be 17a1 c83e
000003e0: c8cc c5bd 5485 dd3d 6dab 2e3c 21a0 9c3e
000003f0: a90b 513e 125e 17be 7b4e 823c a033 953e
0.15804696 0.21841374 0.1277022 -0.13539205 0.11847303 0.12125163 -0.2678653 0.16278014
0.33119968 -0.2825546 -0.13551913 -0.000673197 0.31575912 -0.2756804 -0.12725922 -0.08917468
0.3102354 -0.2635237 -0.19236727 -0.00639745 0.26790082 0.085814066 0.22491027 -0.0060362234
0.0062325485 0.3035929 -0.09237373 0.03578774 0.40942815 -0.14295435 0.34212872 0.09433927
0.41221014 -0.25548553 0.11695896 0.38833725 0.27811477 0.19319385 0.1784657 0.06370349
-0.21058474 -0.29336414 -0.05744041 -0.19453992 0.15670453 0.26711503 0.25063983 0.20692876
-0.24535888 0.14831355 -0.09040889 -0.15301783 0.08264595 -0.11868349 0.079942115 0.017471353
-0.29650295 0.35623336 0.065358356 0.1746683 0.30756295 0.05859357 0.06596686 0.17416054
0.3616269 0.07491688 -0.1873966 0.18195286 -0.19360322 0.23247586 -0.035345983 0.21923482
-0.25135273 0.046180755 -0.20714201 -0.41310635 -0.102844134 -0.12967573 0.285736 -0.27610043
-0.40786797 0.10770502 -0.33742553 0.18384181 -0.2466557 -0.18646203 0.33447456 -0.11049035
0.3156501 -0.29898912 -0.4271731 0.2519025 -0.112763844 0.37613258 -0.47883293 -0.35616603
0.36518452 0.37297523 -0.30159897 -0.12635669 -0.32192132 -0.15957355 0.2857862 0.09917595
-0.07898416 -0.16374174 -0.12656993 -0.08746346 -0.31872073 -0.30706528 -0.034360446 -0.28355068
0.2633393 0.18609378 0.32923552 -0.30946052 -0.034081172 -0.106894836 -0.30528075 -0.39953557
0.16477033 0.061901547 -0.20097955 0.09492135 0.2096719 0.09478023 -0.023971703 0.100589
-0.28335243 -0.19817777 0.029787732 -0.13685958 0.19577576 0.114548415 -0.31955615 -0.3737857
0.21154267 -0.35483196 -0.47071466 -0.29523778 0.06328614 -0.22542223 -0.15742801 -0.35501254
-0.22019245 -0.24444503 0.07045825 0.4079333 0.19399576 -0.28283095 -0.2210926 -0.2428763
0.2795825 -0.018573971 -0.15275154 0.17948656 -0.1622652 0.22355665 0.32928887 0.29475057
-0.08191138 0.07490074 -0.09416068 -0.29926264 0.19891709 -0.29784307 0.22927032 0.28641084
0.38120976 -0.11721832 0.3392739 -0.1718335 0.10946339 0.23804465 0.36660105 -0.093833305
0.19818829 -0.29714411 -0.106749706 -0.033340465 -0.05722536 0.31283078 0.22073363 0.32949927
-0.17238958 0.25142437 -0.034884736 -0.112505645 -0.40087965 -0.32770625 -0.16867104 0.18272895
0.07763399 -0.28388017 0.14705262 -0.20867512 -0.07827294 0.07043483 0.12118067 -0.23503263
-0.12852153 0.3637242 0.16436233 -0.048354562 0.0015642873 -0.24773428 -0.1594781 -0.34148166
0.34831756 0.1453548 0.20370278 -0.34569147 -0.29418507 0.25828788 -0.0049284035 0.30399942
0.05526407 -0.1599363 -0.037541088 0.19173038 -0.16313021 -0.04893454 -0.024163952 -0.20618816
-0.3813252 -0.31975666 0.08600238 -0.10961062 -0.1547528 -0.12128308 0.034689963 0.35029498
0.116427064 0.11321946 0.017730752 -0.21084605 -0.20039396 0.2121659 -0.039490364 0.08986105
0.11373961 0.26395127 0.2369747 0.2866495 0.29542798 0.13259558 -0.38778698 0.39185402
-0.096581995 0.10816446 0.010660988 0.3059092 0.20414604 -0.14781979 0.015906563 0.2914095
